…
[2022-04-17 19:40:32,812: INFO: 01_base_model]: >>>>> stage creating base model completed!<<<<<

[2022-04-17 19:47:19,032: INFO: 01_base_model]: 
********************
[2022-04-17 19:47:19,032: INFO: 01_base_model]: >>>>> stage creating base model started <<<<<
[2022-04-17 19:47:19,032: INFO: common]: yaml file: configs/config.yaml loaded successfully
[2022-04-17 19:47:19,458: INFO: 01_base_model]: base model summary: 
Model: "sequential"
_________________________________________________________________
 Layer (type)                Output Shape              Param #   
=================================================================
 inputlayer (Flatten)        (None, 784)               0         
                                                                 
 hiddenlayer1 (Dense)        (None, 300)               235500    
                                                                 
 leaky_re_lu (LeakyReLU)     (None, 300)               0         
                                                                 
 hiddenlayer2 (Dense)        (None, 100)               30100     
                                                                 
 leaky_re_lu_1 (LeakyReLU)   (None, 100)               0         
                                                                 
 outputlayer (Dense)         (None, 10)                1010      
                                                                 
=================================================================
Total params: 266,610
Trainable params: 266,610
Non-trainable params: 0
_________________________________________________________________

[2022-04-17 19:48:01,342: INFO: common]: created directory at: artifacts/models
[2022-04-17 19:48:01,356: INFO: 01_base_model]: base model is saved at artifacts/models/base_model.h5
…
[2022-04-17 23:45:22,701: INFO: 02_transfer_learning_even_odd]: 
********************
[2022-04-17 23:45:22,701: INFO: 02_transfer_learning_even_odd]: >>>>> stage transfer learning model started <<<<<
[2022-04-17 23:45:22,702: INFO: common]: yaml file: configs/config.yaml loaded successfully
[2022-04-17 23:45:23,043: INFO: 02_transfer_learning_even_odd]: base model summary: 
Model: "sequential"
_________________________________________________________________
 Layer (type)                Output Shape              Param #   
=================================================================
 inputlayer (Flatten)        (None, 784)               0         
                                                                 
 hiddenlayer1 (Dense)        (None, 300)               235500    
                                                                 
 leaky_re_lu (LeakyReLU)     (None, 300)               0         
                                                                 
 hiddenlayer2 (Dense)        (None, 100)               30100     
                                                                 
 leaky_re_lu_1 (LeakyReLU)   (None, 100)               0         
                                                                 
 outputlayer (Dense)         (None, 10)                1010      
                                                                 
=================================================================
Total params: 266,610
Trainable params: 266,610
Non-trainable params: 0
_________________________________________________________________

[2022-04-17 23:45:23,062: INFO: 02_transfer_learning_even_odd]: new model summary: 
Model: "sequential"
_________________________________________________________________
 Layer (type)                Output Shape              Param #   
=================================================================
 inputlayer (Flatten)        (None, 784)               0         
                                                                 
 hiddenlayer1 (Dense)        (None, 300)               235500    
                                                                 
 leaky_re_lu (LeakyReLU)     (None, 300)               0         
                                                                 
 hiddenlayer2 (Dense)        (None, 100)               30100     
                                                                 
 leaky_re_lu_1 (LeakyReLU)   (None, 100)               0         
                                                                 
 output_layer (Dense)        (None, 2)                 202       
                                                                 
=================================================================
Total params: 265,802
Trainable params: 202
Non-trainable params: 265,600
_________________________________________________________________

[2022-04-17 23:45:23,063: INFO: 02_transfer_learning_even_odd]: >>>>> stage transfer learning model completed!<<<<<

[2022-04-18 00:37:35,176: INFO: 02_transfer_learning_even_odd]: 
…
